ModulatedSiren(
  (net): Sequential(
    (0): SirenLayer(
      (linear): Linear(in_features=2, out_features=512, bias=True)
      (activation): Sine()
    )
    (1): SirenLayer(
      (linear): Linear(in_features=512, out_features=512, bias=True)
      (activation): Sine()
    )
    (2): SirenLayer(
      (linear): Linear(in_features=512, out_features=512, bias=True)
      (activation): Sine()
    )
    (3): SirenLayer(
      (linear): Linear(in_features=512, out_features=512, bias=True)
      (activation): Sine()
    )
    (4): SirenLayer(
      (linear): Linear(in_features=512, out_features=512, bias=True)
      (activation): Sine()
    )
    (5): SirenLayer(
      (linear): Linear(in_features=512, out_features=512, bias=True)
      (activation): Sine()
    )
    (6): SirenLayer(
      (linear): Linear(in_features=512, out_features=512, bias=True)
      (activation): Sine()
    )
    (7): SirenLayer(
      (linear): Linear(in_features=512, out_features=512, bias=True)
      (activation): Sine()
    )
    (8): SirenLayer(
      (linear): Linear(in_features=512, out_features=512, bias=True)
      (activation): Sine()
    )
  )
  (last_layer): SirenLayer(
    (linear): Linear(in_features=512, out_features=3, bias=True)
    (activation): Sine()
  )
  (modulation_net): LatentToModulation(
    (net): Linear(in_features=384, out_features=4608, bias=True)
  )
)
Namespace(num_layers=10, dim_hidden=512, w0=50.0, modulate_scale=0, modulate_shift=1, use_latent=1, latent_dim=384, modulation_net_dim_hidden=64, modulation_net_num_layers=1, seed=-1, outer_lr=3e-06, inner_lr=0.01, inner_steps=3, batch_size=64, num_epochs=500, train_dataset='cifar10', test_dataset='cifar10', num_workers=1, gradient_checkpointing
…
